…
        "outputId": "38eab13e-f3ee-4374-b61c-d2a3a1104ecc",
        "colab": {
          "base_uri": "https://localhost:8080/"
        }
      },
      "execution_count": 15,
      "outputs": [
        {
          "output_type": "stream",
          "name": "stdout",
          "text": [
            "Model: \"sequential\"\n",
            "_________________________________________________________________\n",
            " Layer (type)                Output Shape              Param #   \n",
            "=================================================================\n",
            " embedding (Embedding)       (None, 100, 16)           160000    \n",
            "                                                                 \n",
            " dropout (Dropout)           (None, 100, 16)           0         \n",
            "                                                                 \n",
            " conv1d (Conv1D)             (None, 98, 256)           12544     \n",
            "                                                                 \n",
            " max_pooling1d (MaxPooling1D  (None, 32, 256)          0         \n",
            " )                                                               \n",
            "                                                                 \n",
            " conv1d_1 (Conv1D)           (None, 30, 128)           98432     \n",
            "                                                                 \n",
            " max_pooling1d_1 (MaxPooling  (None, 10, 128)          0         \n",
            " 1D)                                                             \n",
            "                                                                 \n",
            " lstm (LSTM)                 (None, 128)               131584    \n",
            "                                                                 \n",
            " dense (Dense)               (None, 128)               16512     \n",
            "                                                                 \n",
            " dropout_1 (Dropout)         (None, 128)               0         \n",
            "                                                                 \n",
            " dense_1 (Dense)             (None, 64)                8256      \n",
            "                                                                 \n",
            " dense_2 (Dense)             (None, 6)                 390       \n",
            "                                                                 \n",
            "=================================================================\n",
            "Total params: 427,718\n",
            "Trainable params: 427,718\n",
            "Non-trainable params: 0\n",
            "_________________________________________________________________\n"
          ]
        }
…
